snake_model.npz (npz, 5930 bytes, 6 tensors)

weights_0 f8 [10, 16]
-4.481188872244386 2.602272277694694 1.5715840565330619 -1.92204020981905 -3.4701527083412405 0.6115955188581111 -2.4927661117543867 1.141766364016925
-1.276298583507213 6.38258544460854 0.777750648429511 -5.7172704118665845 -3.8168469433469023 0.34111509168143483 -0.8750847131935919 -2.0741447765363485
6.846070590982353 -0.9025114711720129 6.009722972080977 -2.348814632753803 -4.715539818363843 4.425241175149667 2.8398731498951637 5.6390876733326945
1.6463201155733893 -1.8623159110461385 -3.6591664571892633 -2.2482602794521913 2.135657846635363 -2.6281832958805422 0.09838564572010555 2.1551601291773195
-2.1287773325385113 -2.0819188227074354 -1.798235226511354 1.3203879332746356 -1.0007359944753058 -0.9533847091369901 -2.9615938128616217 2.221854098320333
0.08624191088459746 2.8259599219344387 0.898479058446355 2.8772347864982324 -3.7912549630560135 -4.3057699833028 0.40161496707364946 -1.4092897702018707
-1.5160423315268594 4.443501422919296 4.852890324419683 1.775017570789236 -0.749210778900552 -1.687050769638024 -3.3193628177799352 -0.5597721899220338
-6.900046636956644 2.4272104945049895 -0.18898490382058544 2.8927345641350053 -2.417556116481101 2.816093899624668 0.918031977175542 1.2847997823052084
-0.6740546879500613 -2.346767894312786 -1.1637175208295243 -3.0130638700757855 1.4411117256465358 4.621648767590203 2.054574336969827 2.796342306123781
-0.6278319840690785 5.706888510648315 -4.321885690586654 -2.940983122160282 0.8557417549713522 2.11030796291603 -0.4965959146870965 0.4641595416780609
2.308386861693129 1.1005256322767045 2.719378677869686 -3.319170866938549 2.911801443208631 1.747368239441781 -0.9144804755678935 8.034062462458774
-0.5722797461487139 0.5930140794669629 -1.326586022584521 -1.176045381172702 -0.9860807910712023 0.0919407625223935 1.2204125510145982 -4.820367575380846
-1.8660794642531442 4.50229790243194 4.217280839577701 -0.009004402401103728 2.5194169818708847 3.3357833033266466 -4.551629741716921 2.2639363476926
-1.8936386902431857 -1.539627891017104 3.4607476593742144 1.8636412572425922 -0.8067270519570341 -0.40350108800825557 2.736467893427765 3.272701485729425
-2.25712716200976 9.05870010312797 0.09931328260456504 3.5064633550315265 -1.1885513445824665 -2.1288489247553124 3.5094114551437925 3.999406501608012
-2.306069694284672 -0.630649786366084 0.01451983419607944 -2.0210463882971 2.073583432857988 2.4874932985710747 7.298753966299 1.6241913223836744
-0.18571963362751562 2.429629607498911 3.0568705850326237 -0.5847984881173937 -1.0234301707790419 -0.2523350418415415 -1.3036910523043348 3.6082608947626627
4.06151060483388 -1.1998586716654178 -5.863238605653375 -3.5290247549241194 2.3665307050828064 1.5527029325897 3.5387329308938176 6.198757952121531
-2.4990775065905817 6.600584740840831 -2.4448352094405372 0.1596973010778936 4.350949443695685 -3.638342044366898 3.7409906754323776 -0.2649192415785661
4.011986312796343 -1.6523366246922233 0.24673209406145724 -0.6996640124230588 -1.0052067599806607 -0.9660595143671612 4.320479178110516 6.888678176348321
00000000: 7df4 95c6 bcec 11c0 9ee3 bf20 74d1 0440
00000010: 9e97 db52 3525 f93f 1851 2c3c adc0 febf
00000020: 949c 536c dfc2 0bc0 0d06 fcc3 3092 e33f
00000030: 547f f45b 2ff1 03c0 2602 92ce ac44 f23f
00000040: 8083 4110 b86b f4bf c313 927a c487 1940
00000050: 4752 ee53 55e3 e83f f66b 8522 7cde 16c0
00000060: 9f19 dc0c e788 0ec0 4a67 bc64 d4d4 d53f
00000070: 2cac 0ca8 b100 ecbf 8c24 7337 d997 00c0
00000080: a381 3954 6062 1b40 475b 9ebc 5fe1 ecbf
00000090: 4d6e 9cd1 f409 1840 c659 8053 5fca 02c0
000000a0: 176f 5b78 b6dc 12c0 c2b8 306c 72b3 1140
000000b0: b4b4 fc69 0fb8 0640 6ef6 c0ff 6c8e 1640
000000c0: 8427 f2c2 5357 fa3f bf37 ccc4 0bcc fdbf
000000d0: 0cfc 4110 f945 0dc0 d424 a9e2 6ffc 01c0
000000e0: 14f5 f5c7 d315 0140 769a bdf6 8406 05c0
000000f0: 9081 c33a cd2f b93f 83ad 0398 c43d 0140
00000100: 8fc0 fd68 bc07 01c0 5ea4 430e c5a7 00c0
00000110: 491a 064d 92c5 fcbf 5429 f718 4f20 f53f
00000120: 3e39 03bf 0303 f0bf bbfe 47a6 2082 eebf
00000130: 7f36 d218 58b1 07c0 bb27 0671 5bc6 0140
00000140: 8a3c cb2a f313 b63f fb1e 24e0 909b 0640
00000150: fd5f 8527 57c0 ec3f 3a63 f7ab 9304 0740
00000160: 73fc 687b 7d54 0ec0 3589 39c4 1b39 11c0
00000170: 9796 4a43 0fb4 d93f 95ab 196e 738c f6bf
00000180: b626 949a b541 f8bf dfab ac3c 25c6 1140
00000190: 58d4 c914 5c69 1340 96d7 05d3 7866 fc3f
000001a0: aa08 26e2 88f9 e7bf 5197 a4f2 28fe fabf
000001b0: c662 cf17 0e8e 0ac0 2c9d 1d5e a7e9 e1bf
000001c0: 0f6a 5ad3 a599 1bc0 5e41 f355 ed6a 0340
000001d0: 6d6e ac46 a830 c8bf d2bf e704 5224 0740
000001e0: af3f 44a9 2757 03c0 0fd3 0a3d 5c87 0640
000001f0: 65d6 d498 8460 ed3f 678a 6e37 8a8e f43f
00000200: 80c0 0e23 db91 e5bf 7502 eb3e 2ec6 02c0
00000210: 8beb 5b43 969e f2bf a6e0 f53a c11a 08c0
00000220: 3f8b 382b cb0e f73f 3298 997e 917c 1240
00000230: ece3 83ab c46f 0040 6bc8 09b7 e85e 0640
00000240: 1ab4 de19 3317 e4bf 539c ec94 dad3 1640
00000250: ef7a 0867 9c49 11c0 8e21 be28 2287 07c0
00000260: 288e 6d88 3c62 eb3f acb3 2924 e9e1 0040
00000270: 5a21 3a3b 3ac8 dfbf 3d8d e838 cab4 dd3f
00000280: 8ee7 eb87 9377 0240 569c f0c3 c09b f13f
00000290: c31e b79b 49c1 0540 40b2 9a74 a98d 0ac0
000002a0: a036 188e 5e4b 0740 758b 2766 38f5 fb3f
000002b0: cea0 ec8e 6c43 edbf 3690 94a2 7011 2040
000002c0: ace6 3b9d 1d50 e2bf d019 aca9 f8f9 e23f
000002d0: bd4c e543 b239 f5bf 4efa 2bf6 14d1 f2bf
000002e0: fdaa 9b4d f98d efbf aaf6 3308 6e89 b73f
000002f0: 25c5 a34f cf86 f33f 94d6 0b70 0e48 13c0
00000300: 7345 eb23 76db fdbf a72d 9f61 5a02 1240
00000310: 7522 50de 7ede 1040 6080 a96e e670 82bf
00000320: d4fa 3017 c427 0440 78a5 1228 afaf 0a40
00000330: 4eb3 506d de34 12c0 f285 eca8 8a1c 0240
00000340: 5d8e 5015 584c febf bcd8 feda 50a2 f8bf
00000350: 32c4 0578 9caf 0b40 0555 b57e 79d1 fd3f
00000360: cb86 1e40 b5d0 e9bf 0656 393a f6d2 d9bf
00000370: 309c 6647 49e4 0540 5a3a d61d 7e2e 0a40
00000380: 32f6 7daf 980e 02c0 b569 9ef0 0d1e 2240
00000390: be52 d864 986c b93f dddc d3a8 3c0d 0c40
000003a0: 8a93 296a 4e04 f3bf 3597 eff1 e107 01c0
000003b0: 2367 2050 4613 0c40 8b87 fed5 c8fe 0f40
000003c0: bdfe f9aa d472 02c0 b67e f575 482e e4bf
000003d0: 60c0 1f28 93bc 8d3f cd7a 6b5e 1a2b 00c0
000003e0: 4238 2de9 b296 0040 310e f3e2 62e6 0340
000003f0: cd37 4b8f ec31 1d40 a55b 410a b0fc f93f
00000400: 43e0 5334 a9c5 c7bf 22cf cca5 e16f 0340
00000410: 598e b690 7874 0840 c7dc a651 abb6 e2bf
00000420: 58c5 9350 f85f f0bf 9307 16e0 4126 d0bf
00000430: 54c2 1b26 ebdb f4bf da87 53e3 b7dd 0c40
00000440: 8b79 d0a2 fc3e 1040 e2ff a901 9f32 f3bf
00000450: 1cb4 2fd2 f473 17c0 5863 a954 713b 0cc0
00000460: da7b 7aa6 a7ee 0240 5104 be07 dfd7 f83f
00000470: c6bc fb35 534f 0c40 46ba 6034 87cb 1840
00000480: 62ce 0759 1cfe 03c0 518d b1af ff66 1a40
00000490: 5840 25c3 058f 03c0 5ccb b10e f670 c43f
000004a0: b2e3 7c4a 5f67 1140 a9bd e112 531b 0dc0
000004b0: eefb ec84 8ced 0d40 e34e aad5 6ff4 d0bf
000004c0: f5d6 d523 460c 1040 f893 5087 f86f fabf
000004d0: 080c 6fd1 ea94 cf3f 1372 71c8 a563 e6bf
000004e0: 675c fdae 5315 f0bf 8b4a 86a4 f5e9 eebf
000004f0: 6f22 94b1 2b48 1140 0057 e0a6 018e 1b40

weights_1 f8 [16, 16]
-2.223407317604056 4.139197295731556 -1.1048463016656356 -5.097804512793526 7.651379778612806 -1.3954770853693634 0.8194811835357094 -4.926377821942013
7.38167809124089 2.0426536111564273 2.252741229386155 0.4683777839252417 0.6047321400184608 1.0677740098999027 -1.89216094428183 2.0187198628583145
5.442727615702394 1.4749701556613102 -0.49112333749663467 2.4671197622287315 3.2342065145744128 -1.4788323289353371 -0.12879629672998041 -0.20638286049468352
-3.3485233691889045 -3.5079409723368635 -1.2527424769864837 3.3229440061049615 4.519834307726558 -4.9331301378549375 1.7669623852362726 2.4308668824634596
-2.1548892949628 -0.21266224000764244 -0.538966089906801 -3.7729172871598364 -5.408529181355151 0.7931962960448365 3.268803582782499 -2.8097756923619768
6.764650275317351 5.086849318457092 1.4067925453090255 -0.26386725831517116 -1.3817410798387848 4.694924816098501 -1.4910215063785195 -1.8490119463200692
1.4887248119528802 -2.3680801097717477 -1.3294374799880107 -0.19924485400785813 3.2296975608644125 -2.4023631494776594 -1.680213747639826 3.4057076091224654
7.132596249040883 -1.9770728511620086 -1.0506473598808252 -0.9671135174498753 -3.90409420145015 4.44796963437504 5.42347001435801 2.654050373315884
4.087061558955943 4.068508750269109 0.2450560429620826 5.8608157691006415 0.9996355612366203 -1.2614859879014853 1.467222873257529 0.9189256621545945
1.2766782602817932 -1.5152675619706728 0.04850021716617437 -1.8300471685523572 0.6475521478079872 -2.815771992488867 -1.3168763362643012 -1.4549139060548808
0.1249078672666257 -0.42359807351660006 4.412200661197544 0.08267250974825016 0.9620265176599594 -3.519956328679416 5.174957616411849 -1.076209730246568
-8.375870634373296 -0.4086695953795448 -0.09542690590544212 2.858998393818147 -1.718482634617009 0.13506054844317877 -0.5472392631848176 -1.9117759509184518
-6.280826831152862 -5.629545697691251 -0.3971564939385992 -3.2950051592204987 4.5583337750832 4.664781029524336 -1.3755613290763617 1.1987558188054692
-5.028502116749224 3.5337807623097315 -0.7535241912368741 3.8907763396216524 -2.6049784964560136 1.6091198226334917 3.0995773528134705 -2.902592143990177
-1.9444415217532043 -0.06737215179754164 -0.544812292286839 0.20745694715716262 1.9326445292123033 -0.14335965201845613 -0.14642414752339517 -5.195828759820108
0.1199797858483183 -2.1884585474308005 -3.049000755945095 0.6892544242661968 0.5260864237528863 -1.2695200254909942 -0.7109165633617529 -0.8637856764606551
-2.168010476931332 -1.7134165406042356 -2.6195539772242324 0.22619105985735094 2.0199468415713056 -2.436879761092308 1.093992788307924 0.8447497619417199
1.2596249157959316 0.02842621392809619 -2.358953204250207 2.620931848114637 2.1198711167859154 1.8276827154412263 4.4090713530765955 1.7158426732770717
-0.5662025283313384 4.1928699616562595 -5.217369663420308 -0.6992172876600864 5.408472518917781 -3.190867676923963 1.9449986647268211 2.9055408383711647
-0.5328857722383897 -0.931219503454435 3.681122252364373 2.533189002635961 2.5804372144489505 -5.997500923495359 -2.8354263230726073 4.193805466229861
5.1688538616480315 -0.2590135786189082 -2.9745947720186683 3.023323553277961 2.096672149049258 6.097016149445387 -2.380171812477892 -4.344113937689918
1.3723981338848654 -3.2054382246492605 -0.548375375320975 2.05925094581042 -1.2206827585476665 5.381910303523568 -4.006275334040233 3.11944413852063
2.4739157711578037 -2.411249053062298 1.6166551047666031 3.7968439232118514 -1.6757233913977967 -2.412663907082835 0.18738208959725555 5.255618297913164
-1.7337029655191372 5.238308840755687 1.2913849235370003 3.2602612888444957 0.6585825748834874 1.414646430731209 4.93917729336271 -2.9324880061484535
-1.8566103409756292 1.9799641403825128 1.6766447349926297 -0.6852025158824675 -0.2266191516963062 2.306105991701534 1.0710305122286141 0.26992578019217134
-2.086032491566711 -3.3404241599427893 -3.484233627925909 -0.6784770368839151 -3.8367124427787527 3.041128520318808 1.051091759271312 0.718385780861253
-0.15478953255997402 5.046784143525273 4.150371476965601 0.77885112714406 2.5150751242331464 -6.566362745303014 2.848315922515434 2.8461287613866704
-3.3214853397962862 -9.435670749478955 6.9615769510364105 -7.199980109153268 -2.047208250028402 3.5194685177668825 -0.4174417781882026 6.790561468732082
1.6516316363943486 -4.286359993018901 1.613391247329383 8.404572511711688 3.868024302437941 3.3003383311784242 0.46662443243630775 -4.989647035838539
1.8923930526015003 7.001677507796036 1.9859432231965615 3.3450613100361 5.1880554570795265 -3.7010259514563573 -4.103363577793247 -4.78751530651052
2.6003488652581415 0.901782081661734 3.023857958132573 1.7446148281682452 4.499861561548213 2.5823394908277004 -2.41650233775461 0.9292534882439615
-0.998078165170895 -6.1221743830936886 3.7264193135091004 3.8623636536034747 -3.5193776153591547 0.9521567149059835 1.8991111605297915 -0.15793465594248374
00000000: 3e5f 96c6 89c9 01c0 486f 63bc 898e 1040
00000010: d32a cc50 73ad f1bf cb65 bfdd 2664 14c0
00000020: bfab f94c 039b 1e40 3ba9 bfc7 df53 f6bf
00000030: d424 5f9a 3039 ea3f 31ec 4363 9cb4 13c0
00000040: d5ea 1d9f d686 1d40 06c9 c7c6 5a57 0040
00000050: d483 9431 9d05 0240 8570 08d0 e6f9 dd3f
00000060: 2d05 8737 f759 e33f 2e9f 4033 9a15 f13f
00000070: cf57 e78d 4a46 febf b618 7699 5626 0040
00000080: 4ee9 5963 5ac5 1540 ff42 524e 7a99 f73f
00000090: 396d 3694 906e dfbf 9bb3 3049 a9bc 0340
000000a0: a6db 44aa a7df 0940 73b7 9016 4ca9 f7bf
000000b0: fd8c 26a5 657c c0bf cec9 23ea c06a cabf
000000c0: f276 c49e c6c9 0ac0 d5e1 435b 4310 0cc0
000000d0: c078 0fb2 3b0b f4bf c047 c5aa 6395 0a40
000000e0: f418 dc71 4f14 1240 e7fe 8377 86bb 13c0
000000f0: 90a1 9d59 7a45 fc3f 5ae1 0856 6a72 0340
00000100: 00ed 4299 363d 01c0 8ca5 f62a 8438 cbbf
00000110: c4af 39d0 353f e1bf 93ea 3642 ef2e 0ec0
00000120: 3287 4579 55a2 15c0 df44 da32 dd61 e93f
00000130: a6c9 287e 8226 0a40 d652 9ead 6b7a 06c0
00000140: 3076 557b 000f 1b40 f9cf 1907 ef58 1440
00000150: e7bd 65e6 3882 f63f ddb9 3c7f 33e3 d0bf
00000160: 2a28 d788 9c1b f6bf 9a49 f95e 9ac7 1240
00000170: 5074 f85d 39db f7bf 63ba f58c 8d95 fdbf
00000180: 4b4d c11b d1d1 f73f d338 0efc d3f1 02c0
00000190: a800 2a3c 6045 f5bf f615 eef9 da80 c9bf
000001a0: a811 bfac 6bd6 0940 13fa c02b 0a38 03c0
000001b0: 4171 86cf 27e2 fabf cf5a 87a1 e33e 0b40
000001c0: bccf a44f c787 1c40 0ace 5824 17a2 ffbf
000001d0: f811 259b 73cf f0bf 88ef 1e0c 98f2 eebf
000001e0: 61da 9dbd 953b 0fc0 aef7 448d b8ca 1140
000001f0: 6804 9a1f a2b1 1540 62a0 1ac3 7e3b 0540
00000200: 76d1 51aa 2659 1040 2695 6728 2746 1040
00000210: dcca 1a15 ff5d cf3f 62ac 60b0 7971 1740
00000220: a8c1 6db7 03fd ef3f d762 66ee 0b2f f4bf
00000230: 0c59 09b1 be79 f73f 9417 4dca d667 ed3f
00000240: a9ca f62e 466d f43f baa8 f532 893e f8bf
00000250: 61bd 273d 05d5 a83f cb1d 318a df47 fdbf
00000260: 8f46 2948 bfb8 e43f 0adc 6577 b386 06c0
00000270: 831a d2eb ec11 f5bf 7205 d0cd 5347 f7bf
00000280: 2e5b ec44 f6f9 bf3f f0c0 1918 3b1c dbbf
00000290: 9fee 1cee 17a6 1140 32a0 a58d 062a b53f
000002a0: 527f e7d5 ebc8 ee3f e735 18dd de28 0cc0
000002b0: 34b3 e216 28b3 1440 62bc b0b1 2738 f1bf
000002c0: f651 a41d 72c0 20c0 a594 c184 a427 dabf
000002d0: 48b8 05d0 e56d b8bf af1f c68c 3adf 0640
000002e0: 96c8 a6a5 e77e fbbf 168a 45ff a949 c13f
000002f0: e3e8 4eea fb82 e1bf b795 2761 a296 febf
00000300: 3d90 9e11 911f 19c0 8aaf 9ba0 a784 16c0
00000310: 400f 3712 036b d9bf ca06 38aa 2b5c 0ac0
00000320: 31f0 60d9 bb3b 1240 a23b b35b bca8 1240
00000330: 7f67 a098 4c02 f6bf 0d8c da94 1a2e f33f
00000340: 0138 ada8 2f1d 14c0 7fd5 2ad9 2e45 0c40
00000350: 616e c3c3 de1c e8bf 00ce 7558 4f20 0f40
00000360: a17e 48f7 fed6 04c0 10e6 586d f4be f93f
00000370: 830c 0e36 efcb 0840 c183 e03a 8238 07c0
00000380: bba1 8eb6 6e1c ffbf d0af a124 4d3f b1bf
00000390: a495 3a30 1a6f e1bf 121b af01 f38d ca3f
000003a0: 9d29 7cab 1cec fe3f 581b 7eec 9b59 c2bf
000003b0: a894 7ac6 06be c2bf a62c 9c55 87c8 14c0
000003c0: e34c 66c8 feb6 be3f 85ef 0e8e f681 01c0
000003d0: 911b 2282 5a64 08c0 8b17 5b4b 5f0e e63f
000003e0: 7f6c 1c32 b3d5 e03f 509d f13a f44f f4bf
000003f0: a059 ba17 d4bf e6bf 24db e4db 21a4 ebbf
00000400: 8771 7ee0 1558 01c0 6021 6576 276a fbbf
00000410: 4947 32b7 d8f4 04c0 3a11 5e22 d4f3 cc3f
00000420: 73a8 c1e3 d928 0040 f367 f1d0 ba7e 03c0
00000430: 687a fd94 fe80 f13f bafd 1aa7 3008 eb3f
00000440: de1f a974 6c27 f43f 005c aeec c21b 9d3f
00000450: 7364 88db 22df 02c0 e093 e51d abf7 0440
00000460: dfa4 f2fc 7ef5 0040 7b8d 243b 303e fd3f
00000470: 1dc7 cc99 e3a2 1140 58e6 6c72 1774 fb3f
00000480: 410f c3c3 541e e2bf 13c7 06b4 7fc5 1040
00000490: 8921 2e27 96de 14c0 5c88 e9ee fc5f e6bf
000004a0: 3644 b89e 46a2 1540 ec03 f2a1 e586 09c0
000004b0: f03e 7ceb b61e ff3f fcf8 ef31 8c3e 0740
000004c0: 1690 8876 660d e1bf 387e 17d8 8ccc edbf
000004d0: dcdc 3339 f072 0d40 3844 8798 f843 0440
000004e0: 4384 2b44 bca4 0440 c891 d0e1 70fd 17c0
000004f0: d983 fefe f3ae 06c0 20f9 acf0 74c6 1040
00000500: 9053 d606 e8ac 1440 37d7 58b0 ad93 d0bf
00000510: ce61 0558 f8cb 07c0 5f71 5442 c42f 0840
00000520: 08ce 340c fcc5 0040 0735 9433 5863 1840
00000530: f4a0 eb84 970a 03c0 67e7 7167 5f60 11c0
00000540: e407 e2be 57f5 f53f 29bc c1cb bca4 09c0
00000550: 16ee dd83 4a8c e1bf 421a 548f 5879 0040
00000560: 7c0d eca4 ea87 f3bf 7f8e 9e7e 1387 1540
00000570: a9e5 890a 6d06 10c0 f628 e520 9ff4 0840
00000580: 7b73 115a 94ca 0340 ed4e 8bf1 3c4a 03c0
00000590: ec24 3ebe d1dd f93f 9db0 f1b4 ef5f 0e40
000005a0: c521 b354 c3cf fabf 6a48 09bc 224d 03c0
000005b0: c892 56e5 22fc c73f 552f 97cd c005 1540
000005c0: 6620 1e52 3fbd fbbf ca92 953b 07f4 1440
000005d0: d738 d23c 83a9 f43f ee03 e0de 0315 0a40
000005e0: afe1 9ac3 1b13 e53f 7b4c b64b 64a2 f63f
000005f0: f78d 40b1 b7c1 1340 108f 9245 bc75 07c0
00000600: e57d 7e0b adb4 fdbf 5d21 e3e0 eead ff3f
00000610: e7dc fc6d 89d3 fa3f 8e44 9bd3 2ded e5bf
00000620: 3469 973a db01 cdbf ecbd bbb2 e772 0240
00000630: f2a3 f0e3 f022 f13f 4573 91c7 7646 d13f
00000640: 1d61 8dcd 31b0 00c0 cac7 4d4d 30b9 0ac0
00000650: 8e85 5ce1 b5df 0bc0 dd1b 9079 15b6 e5bf
00000660: cc20 0f4b 96b1 0ec0 029e 8d30 3b54 0840
00000670: 70a5 b297 45d1 f03f 74bc 562d 04fd e63f
00000680: 02da 0db6 24d0 c3bf 51a6 b92e e82f 1440
00000690: 1e46 fffa fa99 1040 cf2a f132 59ec e83f
000006a0: 1984 ecb4 df1e 0440 34ff 7298 f443 1ac0
000006b0: f409 bfdb 59c9 0640 cae2 f227 dfc4 0640
000006c0: 488c e4e7 6692 0ac0 feab 893c 10df 22c0
000006d0: b527 d5a0 a7d8 1b40 baa7 f295 c7cc 1cc0
000006e0: 7ac9 0fb8 ae60 00c0 02e2 381c df27 0c40
000006f0: ca5a 53b8 5db7 dabf 63ba 16f2 8829 1b40
00000700: 9fa4 754b 156d fa3f 8b98 d38d 3b25 11c0
00000710: e5ea 2e57 73d0 f93f 1653 d520 24cf 2040
00000720: 57d5 b8b9 b6f1 0e40 222c 71c8 1767 0a40
00000730: 3306 35b9 2cdd dd3f 1a0a 5608 66f5 13c0
00000740: e89d 01f0 3d47 fe3f b57d a4bf b701 1c40
00000750: 1479 b566 6cc6 ff3f 7ec2 0d81 afc2 0a40
00000760: aef6 179c 91c0 1440 fd37 797e b39b 0dc0
00000770: d1e0 4824 d869 10c0 973f 9a69 6a26 13c0
00000780: a1cb b3b4 83cd 0440 ef63 9b18 66db ec3f
00000790: 0e6e ef70 dc30 0840 9f96 f13c f1e9 fb3f
000007a0: 1e82 8db5 dbff 1140 b231 629b a1a8 0440
000007b0: a5e8 7a2d ff54 03c0 9d74 b6cf 71bc ed3f
000007c0: 7e57 c89e 41f0 efbf 7b2f 0f48 1b7d 18c0
000007d0: 86a2 d5ed b4cf 0d40 52e3 4bea 1ee6 0e40
000007e0: b1ef 8173 af27 0cc0 0e04 e65b 1178 ee3f
000007f0: df1a 5f62 c262 fe3f 0ac8 16eb 3337 c4bf

weights_2 f8 [16, 4]
0.4050672424830492 -3.135060366685677 0.8735907317808398 4.0726047010891 1.6350437835482858 -1.6079328971378257 -1.0318382544943463 4.364500355702865
5.658078387745994 1.7484408529409339 -2.793573748351704 -1.6639065823268082 2.105430048460195 -2.6560538082297986 0.6931063200340124 0.5676134231537436
0.14263481213464677 -0.37188016974462884 -4.2651788991689035 -2.2386494471030134 5.479187342609455 -1.4689765242636033 5.156395249336833 1.7609403306488696
1.6999456149887933 6.061204460323742 4.081771499080716 -5.760077929508101 1.7658680023800675 -3.167783800676242 0.692432954525083 2.145960131314519
-3.8655386705102464 -1.8086604942303204 1.6214975246379595 -1.1082247182080016 -1.152039153448095 -2.608225787905847 4.16595349575584 -2.8762853854240436
-4.270018145918963 -4.210276114369994 3.5101963480539324 5.833775910802648 -5.948686226531973 0.8123646304061162 -3.358882088578132 0.21192024319995695
-0.11479011296936042 -2.8493714993126145 -2.870561537956151 -1.9541653679631628 0.01566216004797724 -0.4902804464362423 0.9361189662322833 0.48444873560898705
-4.231895289124861 -0.8242420690693972 2.0943023927246984 -3.8830413121601777 1.24051398915331 -8.364825687498291 -0.1713445071640544 4.170003086919466
00000000: 7b51 c927 9fec d93f bd34 8f87 9a14 09c0
00000010: 1acc e28c 74f4 eb3f aada 02e3 584a 1040
00000020: 4ae3 9dab 2329 fa3f 72e9 75d8 17ba f9bf
00000030: 010a 5dd4 6882 f0bf 277f cc94 3f75 1140
00000040: 374b 064d dfa1 1640 4ef2 a51d 9df9 fb3f
00000050: df13 8131 3d59 06c0 9915 2b82 5c9f fabf
00000060: c637 91b5 ebd7 0040 1e1b 9623 993f 05c0
00000070: c44d 264e ed2d e63f f7e8 26a0 e329 e23f
00000080: 3fd8 b186 db41 c23f 0d62 c57b e2cc d7bf
00000090: 3214 ae0e 8b0f 11c0 9d20 940a c1e8 01c0
000000a0: b6a8 3416 b0ea 1540 e2dc 2487 ed80 f7bf
000000b0: 199b 8413 26a0 1440 5782 a5c4 cf2c fc3f
000000c0: 06b0 552c fa32 fb3f d6d6 cd61 ac3e 1840
000000d0: b02f 69e8 bb53 1040 4198 66de 510a 17c0
000000e0: 6267 74ce fe40 fc3f d59f 8508 9f57 09c0
000000f0: cf73 cb27 6928 e63f 3420 3425 ed2a 0140
00000100: 5e1e da89 9fec 0ec0 3095 84fc 45f0 fcbf
00000110: 00d7 6d63 a7f1 f93f a927 95d7 49bb f1bf
00000120: 6656 7c9b c06e f2bf 951d 5d7b a5dd 04c0
00000130: 7cb6 93b6 efa9 1040 47df 82e9 a102 07c0
00000140: aa31 08a3 7f14 11c0 7565 299f 52d7 10c0
00000150: 3371 abd2 e114 0c40 255c 345a c955 1740
00000160: 5d7b f466 74cb 17c0 47af 001c e4fe e93f
00000170: 8a81 8c92 fdde 0ac0 38bc f3d8 3320 cb3f
00000180: 4c88 1b85 e262 bdbf 099e dd48 83cb 06c0
00000190: c46a b5f7 e8f6 06c0 9c0a a6e7 4244 ffbf
000001a0: d85b c3c4 bd09 903f d5f6 d33c c160 dfbf
000001b0: 6a41 24c3 aff4 ed3f 98dd 0145 3501 df3f
000001c0: 0c8d 6bf5 75ed 10c0 707e 54e7 3060 eabf
000001d0: 3d7f e59c 21c1 0040 89f5 a5f6 7710 0fc0
000001e0: ae4d 5a32 25d9 f33f 7d17 b96e caba 20c0
000001f0: 8536 4fe7 9dee c5bf 1127 0a4a 15ae 1040

biases_0 f8 [16]
2.5832355711033967 -1.0370155256907185 -0.9545358791258793 3.5573399667549843 -5.236994711143098 -2.389902685910529 4.205998556810607 2.5087046128208343
3.032628295562289 -3.015566895779205 -2.7496993543394908 0.2297201220371544 -4.457752364064437 2.5392128943586956 7.269657687473164 -0.8600782083474894
00000000: 1606 3e69 77aa 0440 fb92 8497 9d97 f0bf
00000010: 4e89 f6d3 8e8b eebf 28bb 0fa8 6e75 0c40
00000020: 01bd d6bd aef2 14c0 c3dd a44c 851e 03c0
00000030: 5919 2249 f1d2 1040 5d1e 5bb9 d311 0440
00000040: fee9 b29f d242 0840 e72c 6289 e11f 08c0
00000050: 70c3 0560 62ff 05c0 8bfc b00d 7867 cd3f
00000060: 354b 2509 bdd4 11c0 1ad1 96d9 4e50 0440
00000070: b93f 1325 2114 1d40 0a5a 1bbc c285 ebbf

biases_1 f8 [16]
6.668891824936788 -1.6131108020691265 -0.30539144194237716 0.6370722365394349 -1.9285915227945913 5.0310487085548985 4.821884760330553 -3.2317289756405385
-3.1320018259509252 2.8502753137609704 -3.7232193788872765 -6.247222909920506 -2.6105793204258902 -1.8861015846347065 1.2558285885376546 0.16657962722716516
00000000: 3aa9 82fa f1ac 1a40 3061 bb45 4dcf f9bf
00000010: 11bb e78b 888b d3bf df0b a450 e562 e43f
00000020: 03ee dbc8 82db febf 284e 8f3b cb1f 1440
00000030: 56cd 9a28 9c49 1340 264b 9fb8 94da 09c0
00000040: a6c5 2bf9 560e 09c0 9798 c924 5dcd 0640
00000050: fa3b e13d 27c9 0dc0 dcb8 a300 28fd 18c0
00000060: adbe 2669 77e2 04c0 9609 efda 782d febf
00000070: c56a d2b7 df17 f43f 096e 8f31 7b52 c53f

biases_2 f8 [4]
0.013036185430715375 3.2893771213811664 3.011876426858197 -3.3196774690960154
00000000: 3a53 b730 b7b2 8a3f 8457 c4f3 a450 0a40
00000010: 2698 07ab 5218 0840 9348 980f b38e 0ac0
